…
    'iteration_per_update': 32,
    'lang': 'enko',
    'lr': 0.001,
    'lr_step': 0,
    'max_grad_norm': 100000000.0,
    'max_length': 64,
    'model_fn': '/content/SoyChai_nmt/teams/chakyunghee/experiments/models/enko.transformer.bs-128.max_length-64.dropout-2.hs-768.n_layers-4.iter_per_update-32.adam.pth',
    'n_epochs': 20,
    'n_layers': 4,
    'n_splits': 8,
    'off_autocast': False,
    'train': '/content/SoyChai_nmt/data/train.tok.bpe',
    'use_adam': True,
    'use_radam': False,
    'use_transformer': True,
    'valid': '/content/SoyChai_nmt/data/valid.tok.bpe',
    'verbose': 2}
Transformer(
  (emb_enc): Embedding(20286, 768)
  (emb_dec): Embedding(26490, 768)
  (emb_dropout): Dropout(p=0.2, inplace=False)
  (encoder): MySequential(
    (0): EncoderBlock(
      (attn): MultiHead(
        (Q_linear): Linear(in_features=768, out_features=768, bias=False)
        (K_linear): Linear(in_features=768, out_features=768, bias=False)
        (V_linear): Linear(in_features=768, out_features=768, bias=False)
        (linear): Linear(in_features=768, out_features=768, bias=False)
        (attn): Attention(
          (softmax): Softmax(dim=-1)
        )
      )
      (attn_norm): LayerNorm((768,), eps=1e-05, elementwise_affine=True)
      (attn_dropout): Dropout(p=0.2, inplace=False)
      (fc): Sequential(
        (0): Linear(in_features=768, out_features=3072, bias=True)
        (1): ReLU()
        (2): Linear(in_features=3072, out_features=768, bias=True)
      )
      (fc_norm): LayerNorm((768,), eps=1e-05, elementwise_affine=True)
      (fc_dropout): Dropout(p=0.2, inplace=False)
    )
    (1): EncoderBlock(
      (attn): MultiHead(
        (Q_linear): Linear(in_features=768, out_features=768, bias=False)
        (K_linear): Linear(in_features=768, out_features=768, bias=False)
        (V_linear): Linear(in_features=768, out_features=768, bias=False)
        (linear): Linear(in_features=768, out_features=768, bias=False)
        (attn): Attention(
          (softmax): Softmax(dim=-1)
        )
      )
      (attn_norm): LayerNorm((768,), eps=1e-05, elementwise_affine=True)
      (attn_dropout): Dropout(p=0.2, inplace=False)
      (fc): Sequential(
        (0): Linear(in_features=768, out_features=3072, bias=True)
        (1): ReLU()
        (2): Linear(in_features=3072, out_features=768, bias=True)
      )
      (fc_norm): LayerNorm((768,), eps=1e-05, elementwise_affine=True)
      (fc_dropout): Dropout(p=0.2, inplace=False)
    )
    (2): EncoderBlock(
      (attn): MultiHead(
        (Q_linear): Linear(in_features=768, out_features=768, bias=False)
        (K_linear): Linear(in_features=768, out_features=768, bias=False)
        (V_linear): Linear(in_features=768, out_features=768, bias=False)
        (linear): Linear(in_features=768, out_features=768, bias=False)
        (attn): Attention(
          (softmax): Softmax(dim=-1)
        )
      )
      (attn_norm): LayerNorm((768,), eps=1e-05, elementwise_affine=True)
      (attn_dropout): Dropout(p=0.2, inplace=False)
      (fc): Sequential(
        (0): Linear(in_features=768, out_features=3072, bias=True)
        (1): ReLU()
        (2): Linear(in_features=3072, out_features=768, bias=True)
      )
      (fc_norm): LayerNorm((768,), eps=1e-05, elementwise_affine=True)
      (fc_dropout): Dropout(p=0.2, inplace=False)
    )
    (3): EncoderBlock(
      (attn): MultiHead(
        (Q_linear): Linear(in_features=768, out_features=768, bias=False)
        (K_linear): Linear(in_features=768, out_features=768, bias=False)
        (V_linear): Linear(in_features=768, out_features=768, bias=False)
        (linear): Linear(in_features=768, out_features=768, bias=False)
        (attn): Attention(
          (softmax): Softmax(dim=-1)
        )
      )
      (attn_norm): LayerNorm((768,), eps=1e-05, elementwise_affine=True)
      (attn_dropout): Dropout(p=0.2, inplace=False)
      (fc): Sequential(
        (0): Linear(in_features=768, out_features=3072, bias=True)
        (1): ReLU()
        (2): Linear(in_features=3072, out_features=768, bias=True)
      )
      (fc_norm): LayerNorm((768,), eps=1e-05, elementwise_affine=True)
      (fc_dropout): Dropout(p=0.2, inplace=False)
    )
  )
  (decoder): MySequential(
    (0): DecoderBlock(
      (masked_attn): MultiHead(
        (Q_linear): Linear(in_features=768, out_features=768, bias=False)
        (K_linear): Linear(in_features=768, out_features=768, bias=False)
        (V_linear): Linear(in_features=768, out_features=768, bias=False)
        (linear): Linear(in_features=768, out_features=768, bias=False)
        (attn): Attention(
          (softmax): Softmax(dim=-1)
        )
      )
      (masked_attn_norm): LayerNorm((768,), eps=1e-05, elementwise_affine=True)
      (masked_attn_dropout): Dropout(p=0.2, inplace=False)
      (attn): MultiHead(
        (Q_linear): Linear(in_features=768, out_features=768, bias=False)
        (K_linear): Linear(in_features=768, out_features=768, bias=False)
        (V_linear): Linear(in_features=768, out_features=768, bias=False)
        (linear): Linear(in_features=768, out_features=768, bias=False)
        (attn): Attention(
          (softmax): Softmax(dim=-1)
        )
      )
      (attn_norm): LayerNorm((768,), eps=1e-05, elementwise_affine=True)
      (attn_dropout): Dropout(p=0.2, inplace=False)
      (fc): Sequential(
        (0): Linear(in_features=768, out_features=3072, bias=True)
        (1): ReLU()
        (2): Linear(in_features=3072, out_features=768, bias=True)
      )
      (fc_norm): LayerNorm((768,), eps=1e-05, elementwise_affine=True)
      (fc_dropout): Dropout(p=0.2, inplace=False)
    )
    (1): DecoderBlock(
      (masked_attn): MultiHead(
        (Q_linear): Linear(in_features=768, out_features=768, bias=False)
        (K_linear): Linear(in_features=768, out_features=768, bias=False)
        (V_linear): Linear(in_features=768, out_features=768, bias=False)
        (linear): Linear(in_features=768, out_features=768, bias=False)
        (attn): Attention(
          (softmax): Softmax(dim=-1)
        )
      )
      (masked_attn_norm): LayerNorm((768,), eps=1e-05, elementwise_affine=True)
      (masked_attn_dropout): Dropout(p=0.2, inplace=False)
      (attn): MultiHead(
        (Q_linear): Linear(in_features=768, out_features=768, bias=False)
        (K_linear): Linear(in_features=768, out_features=768, bias=False)
        (V_linear): Linear(in_features=768, out_features=768, bias=False)
        (linear): Linear(in_features=768, out_features=768, bias=False)
        (attn): Attention(
          (softmax): Softmax(dim=-1)
        )
      )
      (attn_norm): LayerNorm((768,), eps=1e-05, elementwise_affine=True)
      (attn_dropout): Dropout(p=0.2, inplace=False)
      (fc): Sequential(
        (0): Linear(in_features=768, out_features=3072, bias=True)
        (1): ReLU()
        (2): Linear(in_features=3072, out_features=768, bias=True)
      )
      (fc_norm): LayerNorm((768,), eps=1e-05, elementwise_affine=True)
      (fc_dropout): Dropout(p=0.2, inplace=False)
    )
    (2): DecoderBlock(
      (masked_attn): MultiHead(
        (Q_linear): Linear(in_features=768, out_features=768, bias=False)
        (K_linear): Linear(in_features=768, out_features=768, bias=False)
        (V_linear): Linear(in_features=768, out_features=768, bias=False)
        (linear): Linear(in_features=768, out_features=768, bias=False)
        (attn): Attention(
          (softmax): Softmax(dim=-1)
        )
      )
      (masked_attn_norm): LayerNorm((768,), eps=1e-05, elementwise_affine=True)
      (masked_attn_dropout): Dropout(p=0.2, inplace=False)
      (attn): MultiHead(
        (Q_linear): Linear(in_features=768, out_features=768, bias=False)
        (K_linear): Linear(in_features=768, out_features=768, bias=False)
        (V_linear): Linear(in_features=768, out_features=768, bias=False)
        (linear): Linear(in_features=768, out_features=768, bias=False)
        (attn): Attention(
          (softmax): Softmax(dim=-1)
        )
      )
      (attn_norm): LayerNorm((768,), eps=1e-05, elementwise_affine=True)
      (attn_dropout): Dropout(p=0.2, inplace=False)
      (fc): Sequential(
        (0): Linear(in_features=768, out_features=3072, bias=True)
        (1): ReLU()
        (2): Linear(in_features=3072, out_features=768, bias=True)
      )
      (fc_norm): LayerNorm((768,), eps=1e-05, elementwise_affine=True)
      (fc_dropout): Dropout(p=0.2, inplace=False)
    )
    (3): DecoderBlock(
      (masked_attn): MultiHead(
        (Q_linear): Linear(in_features=768, out_features=768, bias=False)
        (K_linear): Linear(in_features=768, out_features=768, bias=False)
        (V_linear): Linear(in_features=768, out_features=768, bias=False)
        (linear): Linear(in_features=768, out_features=768, bias=False)
        (attn): Attention(
          (softmax): Softmax(dim=-1)
        )
      )
      (masked_attn_norm): LayerNorm((768,), eps=1e-05, elementwise_affine=True)
      (masked_attn_dropout): Dropout(p=0.2, inplace=False)
      (attn): MultiHead(
        (Q_linear): Linear(in_features=768, out_features=768, bias=False)
        (K_linear): Linear(in_features=768, out_features=768, bias=False)
        (V_linear): Linear(in_features=768, out_features=768, bias=False)
        (linear): Linear(in_features=768, out_features=768, bias=False)
        (attn): Attention(
          (softmax): Softmax(dim=-1)
        )
      )
      (attn_norm): LayerNorm((768,), eps=1e-05, elementwise_affine=True)
      (attn_dropout): Dropout(p=0.2, inplace=False)
      (fc): Sequential(
        (0): Linear(in_features=768, out_features=3072, bias=True)
        (1): ReLU()
        (2): Linear(in_features=3072, out_features=768, bias=True)
      )
      (fc_norm): LayerNorm((768,), eps=1e-05, elementwise_affine=True)
      (fc_dropout): Dropout(p=0.2, inplace=False)
    )
  )
  (generator): Sequential(
    (0): LayerNorm((768,), eps=1e-05, elementwise_affine=True)
    (1): Linear(in_features=768, out_features=26490, bias=True)
    (2): LogSoftmax(dim=-1)
  )
)
NLLLoss()
Adam (
Parameter Group 0
    amsgrad: False
    betas: (0.9, 0.98)
    eps: 1e-08
    lr: 0.001
    weight_decay: 0
)
Epoch 1 - loss=3.8061e+00 ppl=44.98
Validation - loss=3.8299e+00 ppl=46.06 best_loss=inf best_ppl=inf
Epoch 2 - loss=3.0900e+00 ppl=21.98
Validation - loss=3.1192e+00 ppl=22.63 best_loss=3.8299e+00 best_ppl=46.06
…
